note_lstm_model.pt (torch, 280761 bytes, 7 tensors)

embed.weight f4 [597, 16]
-0.3870979 -0.6088193 1.2617507 -0.74672085 -0.04739079 -0.86829627 -0.12080519 1.2216007
-0.80566573 0.99272513 -1.1643564 0.04848949 -0.33773175 2.4482515 -0.619055 -1.6654022
2.149468 -0.12747069 -1.2758614 -0.31962532 0.6119326 0.06363185 -1.2764344 -0.8718194
0.9067229 -0.62836754 1.0206369 0.0055254083 -0.0037522481 -0.79300183 -1.5985323 -0.56212217
0.13231172 0.5370206 -1.1979086 -0.14042741 -0.006552729 -0.33878314 -1.2629055 -0.5872898
0.2715415 0.019016424 0.17914638 -0.91152745 0.7659373 -0.11212786 0.17225052 1.273784
0.46555808 0.3944157 -0.544987 -0.2956718 -0.05627078 0.75250095 0.20930244 -0.34481058
-1.3254596 -0.4337528 -0.52171814 -1.7806644 0.48048505 0.007703993 -0.6192693 -0.25557542
-0.8607138 -0.08083085 -0.50036454 -1.2781252 -0.96673065 -0.809352 1.2809165 1.2193335
-0.18413326 0.082310796 0.10118606 -1.4769253 -0.094569795 0.58282465 0.4080651 1.1204369
0.12363085 1.0411927 0.20729618 1.0994722 2.3966868 -1.3637918 -1.0941055 -1.5637764
1.8911121 -0.23432283 -0.9776466 -1.3470489 -0.76539934 -0.85881704 1.4614502 -1.1710672
-2.326175 1.059991 -0.5976212 -1.8578392 0.58172166 -1.3248608 -1.2273924 -1.0114226
-0.22122858 -0.7828904 1.4760627 1.6847209 0.8404644 -0.029347235 -0.37904254 -0.6441144
-0.74498296 -0.8649324 -0.10405749 0.8999417 -0.013070991 0.6964901 0.1511081 -0.8629744
0.6695144 -0.44610232 0.5132439 -1.2452335 -0.002587201 -0.69143 0.12480222 0.82251716
0.34724423 -0.6730843 -0.48199448 1.5807613 0.32389548 -0.67858344 -1.3919686 -0.04750692
-0.004280481 -1.1352714 0.6041601 -1.7781966 -1.8147172 -0.25532007 -0.31711513 -1.0679433
-1.7782444 0.68493414 -1.2104056 -1.0104227 -0.8198716 0.3034709 -0.48005235 -1.8763745
-0.7125859 -0.86443055 0.41088015 0.6640597 -0.23006473 0.8191077 0.6943771 -0.5572124
0.13410905 -1.2771032 -1.5675822 -0.10025172 0.5576647 -1.1112096 -1.531779 1.4668202
-2.2947292 -1.3529243 -0.3628064 -0.47773173 0.4173364 -0.94559526 0.82840914 0.021675387
-0.52672005 1.1102693 -1.8961374 0.12681502 -0.8374177 -0.28099307 -2.5925992 -0.4887262
1.0893521 -1.6998898 0.1566731 0.65238595 -1.0404778 -0.8462231 0.0100242095 -0.3550773
1.989142 0.46330363 0.4479417 -0.61375445 0.7767868 -1.1882128 0.10818382 1.2232999
-0.06990101 -1.5263953 -0.60266393 -0.39821044 0.6321806 -0.18810464 1.2312976 0.68657637
1.229792 -0.42873907 -0.81736195 -0.35597405 1.0777667 -0.56046224 -0.105520226 -1.0844824
0.59129184 -2.1023898 -0.43587607 -0.08145777 0.6727865 -0.36369783 -0.40073583 -2.2661498
0.4456304 -1.3364226 0.5567651 -2.7141218 0.71776223 -1.4619491 0.3518006 1.1080629
-0.84370023 0.6088919 0.82209575 -1.964857 -1.7691499 -0.19083174 -1.7649076 0.23861848
0.14611997 -0.7520929 -0.5706492 0.52138287 0.3995744 -0.8623817 -0.7007387 -1.1338885
1.2119694 0.8404239 1.415731 1.3495375 1.7985979 -1.6307384 -0.85989314 -0.20246267
00000000: b231 c6be 95db 1bbf 0c81 a13f 1929 3fbf
00000010: d81c 42bd aa48 5ebf b668 f7bd 695d 9c3f
00000020: 1c40 4ebf 3c23 7e3f a109 95bf ea9c 463d
00000030: 2deb acbe 27b0 1c40 637a 1ebf e62b d5bf
00000040: e290 0940 ad87 02be 6d4f a3bf eea5 a3be
00000050: 9da7 1c3f 6a51 823d 3462 a3bf 8e2f 5fbf
00000060: fe1e 683f b2dc 20bf 3ba4 823f 7c0e b53b
00000070: 47e8 75bb 2b02 4bbf b59c ccbf 3de7 0fbf
00000080: b97c 073e 2f7a 093f 1255 99bf 34cc 0fbe
00000090: 46b8 d6bb fc74 adbe e3a6 a1bf a058 16bf
000000a0: 7d07 8b3e 55c8 9b3c 2672 373e dd59 69bf
000000b0: 7814 443f 4ba3 e5bd 7162 303e 5b0b a33f
000000c0: a15d ee3e dbf0 c93e 4584 0bbf 4b62 97be
000000d0: 307c 66bd e7a3 403f 6153 563e 038b b0be
000000e0: a9a8 a9bf d914 debe 528f 05bf d0ec e3bf
000000f0: 2302 f63e c771 fc3b 6f88 1ebf c8da 82be
00000100: bd57 5cbf a58a a5bd e417 00bf 9b99 a3bf
00000110: a97b 77bf b131 4fbf 12f5 a33f 1f13 9c3f
00000120: 6e8d 3cbe 9092 a83d a33a cf3d e30b bdbf
00000130: cfad c1bd ff33 153f e9ed d03e 7a6a 8f3f
00000140: 2c32 fd3d cd45 853f 7345 543e 81bb 8c3f
00000150: 5163 1940 bb90 aebf a60b 8cbf d329 c8bf
00000160: f60f f23f 53f2 6fbe 0c47 7abf 196c acbf
00000170: 36f1 43bf 6fdb 5bbf cd10 bb3f 88e5 95bf
00000180: 0de0 14c0 c9ad 873f b4fd 18bf adcd edbf
00000190: b6eb 143f 0a95 a9bf 321b 9dbf 4c76 81bf
000001a0: bf89 62be 816b 48bf 9fef bc3f efa4 d73f
000001b0: ad28 573f 9d69 f0bc dd11 c2be aee4 24bf
000001c0: 34b7 3ebf 366c 5dbf 181c d5bd 9462 663f
000001d0: b627 56bc 2d4d 323f 15bc 1a3e e4eb 5cbf
000001e0: 4c65 2b3f 8667 e4be f463 033f d063 9fbf
000001f0: 088e 29bb 8e01 31bf 4e98 ff3d 7c90 523f
00000200: ffc9 b13e 414f 2cbf fbc7 f6be 6356 ca3f
00000210: a1d5 a53e a5b7 2dbf 072c b2bf 9e96 42bd
00000220: 4743 8cbb 9350 91bf 3caa 1a3f f29b e3bf
00000230: a748 e8bf 50b9 82be ea5c a2be 5eb2 88bf
00000240: 839d e3bf d857 2f3f 92ee 9abf 8855 81bf
00000250: 1be3 51bf 8a60 9b3e 6cc9 f5be 0a2d f0bf
00000260: 086c 36bf 524b 5dbf e25e d23e d1ff 293f
00000270: 1796 6bbe 0bb1 513f b3c2 313f 79a5 0ebf
00000280: e253 093e 1e78 a3bf 89a6 c8bf c650 cdbd
00000290: 1dc3 0e3f 1e3c 8ebf 5611 c4bf c4c0 bb3f
000002a0: d8dc 12c0 a02c adbf c3c1 b9be 4199 f4be
000002b0: 1ead d53e 8812 72bf 9f12 543f 9590 b13c
000002c0: 20d7 06bf 4e1d 8e3f a1b4 f2bf ccdb 013e
000002d0: 0261 56bf 53de 8fbe 25ed 25c0 523a fabe
000002e0: e46f 8b3f fd95 d9bf ea6e 203e c402 273f
000002f0: 602e 85bf 14a2 58bf 953c 243c b1cc b5be
00000300: 349c fe3f 2236 ed3e 9d58 e53e 031f 1dbf
00000310: 80db 463f 5b17 98bf 7b8f dd3d 1795 9c3f
00000320: 4328 8fbd ec60 c3bf 2f48 1abf 3de2 cbbe
00000330: 96d6 213f 819e 40be 299b 9d3f 78c3 2f3f
00000340: d369 9d3f b083 dbbe a23e 51bf 3b42 b6be
00000350: 42f4 893f 747a 0fbf fd1a d8bd 52d0 8abf
00000360: e75e 173f 8e8d 06c0 262b dfbe 55d3 a6bd
00000370: bc3b 2c3f 9a36 babe 3f2d cdbe 9908 11c0
00000380: ab29 e43e e50f abbf 2888 0e3f 2cb4 2dc0
00000390: 44bf 373f 2621 bbbf 351f b43e 01d5 8d3f
000003a0: bdfc 57bf 57e0 1b3f de74 523f 6f80 fbbf
000003b0: 8173 e2bf 6569 43be 7ee8 e1bf 6758 743e
000003c0: 79a0 153e 2989 40bf 1116 12bf 5979 053f
000003d0: 0495 cc3e 0cc5 5cbf 9d63 33bf 4223 91bf
000003e0: d021 9b3f 0526 573f ac36 b53f a5bd ac3f
000003f0: 7538 e63f 09bc d0bf f521 5cbf 6052 4fbe

lstm.weight_ih_l0 f4 [256, 16]
0.07694038 0.08845524 -0.03788807 -0.054726254 0.23254003 -0.1248668 0.10667263 0.0721774
0.044536456 0.014506442 0.010981857 0.04632772 0.14018795 0.11359267 -0.097529344 0.04869691
-0.13794391 -0.06264537 -0.011072936 0.10313764 -0.019430624 0.015729161 -0.058726724 -0.0004996149
-0.05134409 0.03688396 0.16847776 0.09335136 -0.006131672 0.042749457 -0.13007833 0.11900662
-0.011132633 -0.058780003 -0.08136085 0.04548535 0.0805398 -0.00801778 0.0030507052 0.034901176
-0.16980103 0.14149274 0.06749327 0.015180529 -0.111611634 0.11037604 0.032395493 0.24557842
-0.13404027 -0.06455935 -0.047762137 -0.09474875 -0.03916899 -0.12651742 -0.004560627 0.0071994704
0.049965072 0.13383012 0.1686072 -0.107809395 0.12704323 -0.0535163 0.15725057 0.07731927
-0.13507378 0.17849281 0.019563822 -0.014158576 0.0670408 0.03812983 0.14252654 -0.08405104
-0.040602896 0.03765046 0.17892304 -0.1537455 -0.076352775 0.031108225 -0.039164547 0.1260886
-0.15966032 -0.040578555 -0.03780614 -0.07858598 -0.010689327 0.10752038 -0.07948181 0.055741902
-0.15634497 0.09604144 0.08424592 0.08789442 -0.074474774 -0.00037131028 0.07459622 0.060304914
-0.08784591 0.22764036 -0.0703055 0.049062327 0.052300792 -0.01845626 0.058564316 -0.024785895
-0.16696702 0.12773299 0.086319864 0.026009 0.04751487 -0.15909168 0.13381907 0.066918746
-0.10475411 -0.0507096 -0.0046808557 0.15199888 0.05476852 -0.022956071 0.12039848 0.04820843
-0.13940819 0.04248029 0.21238472 0.008545927 0.05016354 -0.07312178 0.094979994 -0.2131698
-0.09738313 0.007409646 -0.08310392 -0.084574945 0.11784642 -0.051451378 0.03903561 0.039453495
-0.08441251 -0.0037875453 0.2125272 0.040540706 0.030636093 0.03641876 0.14066 -0.07062124
-0.057460446 -0.12376997 0.0227511 -0.060161967 0.17354071 0.11251322 0.055095945 0.04440715
-0.030741645 0.18337117 0.06832203 -0.10180624 0.021577466 -0.10179101 0.27753353 -0.111889146
0.048254877 -0.017136978 -0.02812028 0.0053982404 0.20467685 -0.013422042 0.03383474 0.005393938
-0.1426008 0.12726516 -0.016952807 -0.22305003 0.0049644336 0.07265206 -0.19597504 0.09702876
0.08581493 0.104063615 0.011207114 0.0015617268 0.032867767 -0.07882899 0.13426107 0.049312692
-0.15948246 0.121135235 0.12417706 -0.12517811 0.032163724 0.12967254 0.28926232 -0.04930313
-0.117106654 0.07680702 0.039319765 -0.080164924 -0.013940816 -0.0877686 0.0024688744 0.085135184
-0.07782943 -0.13347295 0.071372196 -0.016977847 0.053830296 0.059316583 0.0974364 0.05585251
0.015536243 -0.018109798 0.043356292 -2.1802494e-05 -0.01470434 0.09634523 0.123865694 -0.11790876
0.07804106 -0.060319312 0.12873946 -0.01389796 0.013362058 0.15494117 0.27724558 0.0663499
-0.13923343 -0.0031968965 0.030672599 -0.15735818 -0.024441682 0.06397973 0.0016376434 -0.038913243
-0.106881864 0.033327214 0.1187455 -0.057651322 0.05148138 -0.042753074 0.09486807 -0.18187451
-0.08475189 0.04722513 -0.089376226 0.057495285 0.069742 0.025563156 -0.11595386 -0.105717085
0.07510577 -0.052937586 0.06493386 0.09279909 0.00055290235 0.010464283 -0.081818506 0.026074909
00000000: eb92 9d3d 0528 b53d 8530 1bbd a328 60bd
00000010: f91e 6e3e 2aba ffbd 2e77 da3d bfd1 933d
00000020: dc6b 363d 6dac 6d3c 3fed 333c 23c2 3d3d
00000030: 6e8d 0f3e 46a3 e83d 77bd c7bd 6976 473d
00000040: 2b41 0dbe 374c 80bd 426b 35bc d439 d33d
00000050: f92c 9fbc 71da 803c 6f8b 70bd 97f8 02ba
00000060: 2e4e 52bd a313 173d 6f85 2c3e ff2e bf3d
00000070: 31ec c8bb 0e1a 2f3d 4133 05be beb9 f33d
00000080: a665 36bc 4dc3 70bd 84a0 a6bd d94e 3a3d
00000090: 0df2 a43d 025d 03bc 57ee 473b 89f4 0e3d
000000a0: 52e0 2dbe 79e3 103e e939 8a3d c1b7 783c
000000b0: a494 e4bd d50c e23d 23b1 043d e978 7b3e
000000c0: da41 09be b137 84bd 3ba2 43bd a20b c2bd
000000d0: aa6f 20bd c88d 01be 5071 95bb 89e9 eb3b
000000e0: 2da8 4c3d c30a 093e 5ea7 2c3e 2ccb dcbd
000000f0: 9f17 023e e833 5bbd 4b06 213e 9159 9e3d
00000100: c850 0abe d2c6 363e 4f44 a03c 5ff9 67bc
00000110: b04c 893d 062e 1c3d 7af2 113e f422 acbd
00000120: 394f 26bd 5e37 1a3d 9a37 373e 766f 1dbe
00000130: d85e 9cbd add6 fe3c 016b 20bd 5f1d 013e
00000140: ff7d 23be b335 26bd 9cda 1abd b0f1 a0bd
00000150: 4922 2fbc a533 dc3d 5cc7 a2bd 9f51 643d
00000160: e518 20be 60b1 c43d 2089 ac3d fd01 b43d
00000170: 3b86 98bd 6cac c2b9 e7c5 983d 4902 773d
00000180: 8ee8 b3bd 8e1a 693e 54fc 8fbd 94f5 483d
00000190: 5b39 563d 9531 97bc 23e1 6f3d ca0b cbbc
000001a0: 67f9 2abe 70cc 023e 78c8 b03d d410 d53c
000001b0: f49e 423d eee8 22be de07 093e b20c 893d
000001c0: 5389 d6bd dfb4 4fbd dd61 99bb 98a5 1b3e
000001d0: f554 603d 5f0e bcbc 7a93 f63d 3476 453d
000001e0: 05c1 0ebe d0ff 2d3d 617b 593e 3704 0c3c
000001f0: 4978 4d3d dfc0 95bd df84 c23d 2f49 5abe
00000200: ce70 c7bd 9ecc f23b 6332 aabd a135 adbd
00000210: 7759 f13d aebe 52bd cee3 1f3d fd99 213d
00000220: 77e0 acbd 7738 78bb bba0 593e 030e 263d
00000230: 8bf8 fa3c d62b 153d 2d09 103e dea1 90bd
00000240: a55b 6bbd 1c7b fdbd 8460 ba3c 656c 76bd
00000250: a8b4 313e 556d e63d 49ac 613d 46e4 353d
00000260: e7d5 fbbc a7c5 3b3e 6cec 8b3d ca7f d0bd
00000270: 3ac3 b03c ce77 d0bd e018 8e3e 2326 e5bd
00000280: e8a6 453d d962 8cbc 805c e6bc b9e3 b03b
00000290: cf96 513e 20e8 5bbc 4c96 0a3d a2bf b03b
000002a0: f205 12be cc51 023e 9de0 8abc 3a67 64be
000002b0: b0ac a23b 9aca 943d aead 48be 04b7 c63d
000002c0: bdbf af3d 4e1f d53d 0b9e 373c dbb2 cc3a
000002d0: 5aa0 063d 1871 a1bd bc7b 093e 1bfc 493d
000002e0: 5f4f 23be c015 f83d 8b50 fe3d b12e 00be
000002f0: 1cbe 033d e1c8 043e 311a 943e 14f2 49bd
00000300: 9dd5 efbd 004d 9d3d c30d 213d 822d a4bd
00000310: 0568 64bc 06c0 b3bd d7cc 213b 5b5b ae3d
00000320: 0965 9fbd 22ad 08be 962b 923d 2015 8bbc
00000330: 287d 5c3d f2f5 723d bc8c c73d 9ac5 643d
00000340: ba8b 7e3c 005b 94bc 5e96 313d 80e4 b6b7
00000350: 79ea 70bc a650 c53d 4cad fd3d 267a f1bd
00000360: fed3 9f3d 6211 77bd 47d4 033e 45b4 63bc
00000370: 89ec 5a3c e6a8 1e3e 22f3 8d3e 75e2 873d
00000380: 3593 0ebe 0683 51bb 1a45 fb3c 8122 21be
00000390: ec39 c8bc ce07 833d 32a6 d63a 7e63 1fbd
000003a0: e1e4 dabd 1e82 083d d730 f33d cb23 6cbd
000003b0: 24de 523d d91d 2fbd 314a c23d 503d 3abe
000003c0: 6692 adbd 236f 413d e20a b7bd 2d80 6b3d
000003d0: e5d4 8e3d d369 d13c 3879 edbd 3382 d8bd
000003e0: 0ed1 993d 15d5 58bd 0bfc 843d 730d be3d
000003f0: a6f0 103a 6272 2b3c 7690 a7bd 0c9b d53c

lstm.weight_hh_l0 f4 [256, 64]
-0.03975878 -0.04025593 -0.05547073 -0.15925632 0.44927546 -0.27581614 0.08400496 -0.20391555
0.24831428 -0.060960848 -0.0810977 0.11294479 -0.33539572 -0.3164417 0.38331488 0.3592887
0.32965755 0.14221261 -0.2170683 0.045479767 0.16436332 -0.04537781 0.19512984 -0.015597285
0.28810003 -0.03784405 0.33570588 -0.15267824 -0.1992499 0.028912319 0.40144208 -0.20589486
0.26500496 0.21257114 -0.24567534 0.032110963 0.2604993 0.14560248 0.16574174 -0.0040644454
0.3993039 -0.12493366 0.23710273 -0.18619777 0.24249892 0.28878108 0.33093667 -0.41718563
0.20004997 -0.07242445 -0.028736006 -0.24422951 -0.18861292 -0.31098875 -0.19990914 -0.22021294
-0.25069126 0.14679636 -0.11720448 -0.32696664 -0.02760733 -0.47844544 0.23881625 0.23416393
-0.11959716 -0.03773463 -0.10704555 -0.099920146 0.53216213 -0.1598419 -0.11327288 -0.06397759
0.30543622 0.051564246 -0.20159253 -0.06333352 -0.31407443 -0.35577673 0.5448238 0.35666606
0.29424095 0.008996688 -0.08310062 0.18569069 0.20386033 0.07796069 0.15745188 -0.013785454
0.33093774 -0.085424475 0.24099706 -0.15861218 -0.36363906 -0.056547794 0.23610099 -0.31428188
0.34142837 0.19058762 -0.23564452 -0.14240602 0.23045917 0.12374703 0.20831294 0.22348216
0.6224363 -0.112127885 0.119104944 -0.27963468 0.17291221 0.30548948 0.09705028 -0.3944703
0.23018087 -0.10539431 0.12316841 -0.17310108 -0.22527044 -0.35553226 -0.10849118 -0.2326572
-0.21052444 0.09791139 -0.19740768 -0.3267469 0.060919456 -0.24081437 0.20804575 0.16996148
-0.061672904 0.04353077 -0.19368675 0.021282615 0.12274413 -0.1748726 0.058300864 -0.062363684
0.09768366 -0.019810755 -0.16031978 -0.10886951 0.00526421 -0.093944564 0.16365206 0.07526176
0.23159969 0.1746181 -0.10654752 0.10406126 0.067336716 0.20578575 -0.13004553 -0.06130803
0.168334 0.09941564 0.22364701 -0.15738057 -0.25020865 -0.29426435 0.21380936 -0.18255842
0.066068456 0.15618904 -0.17130405 -0.05186327 0.36070326 0.20824645 0.06424305 0.21349873
0.31955674 -0.09899181 0.1349249 -0.05739602 0.14597546 0.14845821 0.104555786 -0.40476513
0.03259931 -0.166382 0.20101039 -0.0925736 -0.27601242 -0.094214596 0.017935198 -0.14595681
-0.1439892 0.20700802 -0.08574875 -0.09463867 0.09813875 -0.30808753 0.112638876 0.05778296
-0.024270365 0.07147074 -0.048343692 -0.09984495 0.37738854 -0.16954367 0.09047795 -0.04642481
0.24318239 0.045428637 -0.18920334 0.007413755 -0.035670795 -0.29422557 0.35033265 0.058145586
0.29839882 0.012452459 -0.09568005 -0.007044058 0.24132143 0.17303587 -0.109585136 -0.027941968
0.08228791 -0.13524483 0.23057638 -0.081934765 -0.17752464 -0.13450174 0.20922488 -0.26302046
0.30547586 0.10985925 -0.21015021 0.025264956 0.18255945 0.116893545 0.06667645 0.2592967
0.3266558 -0.28063837 0.0015167561 -0.13296793 0.27643973 0.29913265 0.14688432 -0.4985097
0.12236182 -0.014821397 0.24160375 -0.054415457 -0.23160103 -0.09797304 -0.007230629 -0.2924804
-0.1498963 0.013346671 0.069418035 -0.2958312 0.15568508 -0.2966924 0.08601133 0.11111389
00000000: 1ada 22bd 67e3 24bd 4735 63bd 1714 23be
00000010: 6f07 e63e c637 8dbe cb0a ac3d 3dcf 50be
00000020: 1946 7e3e 15b2 79bd 8d16 a6bd 994f e73d
00000030: fdb8 abbe a604 a2be d941 c43e b0f4 b73e
00000040: e0c8 a83e 2fa0 113e 2747 5ebe fe48 3a3d
00000050: dc4e 283e 15de 39bd 1ed0 473e c18b 7fbc
00000060: d981 933e 5d02 1bbd a4e1 ab3e af57 1cbe
00000070: 2a08 4cbe 87d9 ec3c d189 cd3e 1ad6 52be
00000080: bbae 873e 40ac 593e 5192 7bbe c986 033d
00000090: 2a60 853e d118 153e 34b8 293e 0a2f 85bb
000000a0: 9071 cc3e 38dd ffbd 0fcb 723e a1aa 3ebe
000000b0: a351 783e 1ddb 933e 8870 a93e 5b99 d5be
000000c0: e6d9 4c3e 4553 94bd c667 ebbc 4d17 7abe
000000d0: bf23 41be eb39 9fbe fbb4 4cbe 807f 61be
000000e0: 9b5a 80be c951 163e e708 f0bd 2c68 a7be
000000f0: c428 e2bc cdf6 f4be 3f8c 743e abc8 6f3e
00000100: 5bef f4bd a18f 1abd b33a dbbd efa2 ccbd
00000110: c73b 083f 98ad 23be 9dfb e7bd af06 83bd
00000120: 2362 9c3e 0835 533d 466e 4ebe 01b5 81bd
00000130: 5dce a0be 5e28 b6be 9379 0b3f ef9c b63e
00000140: c0a6 963e d866 133c a830 aabd b325 3e3e
00000150: c3c0 503e dba9 9f3d 113b 213e 63dc 61bc
00000160: ac70 a93e 07f3 aebd efc7 763e 3b6b 22be
00000170: e62e babe a99e 67bd 75c4 713e 8ee9 a0be
00000180: b3cf ae3e 6729 433e cc4c 71be e2d2 11be
00000190: 7dfd 6b3e 156f fd3d fd4f 553e 82d8 643e
000001a0: fc57 1f3f 4ea3 e5bd 4bed f33d 472c 8fbe
000001b0: e60f 313e 1e69 9c3e 4cc2 c63d 03f8 c9be
000001c0: 89b4 6b3e f9d8 d7bd b83f fc3d 6941 31be
000001d0: 4bad 66be 5308 b6be a030 debd b03d 6ebe
000001e0: b893 57be c485 c83d 3d25 4abe 5f4b a7be
000001f0: ae86 793d 0b98 76be f209 553e 620a 2e3e
00000200: ba9c 7cbd 524d 323d d255 46be e158 ae3c
00000210: 4661 fb3d ce11 33be e3cc 6e3d 1071 7fbd
00000220: 5f0e c83d 2a4a a2bc de2a 24be faf6 debd
00000230: 657f ac3b 0266 c0bd 6894 273e d622 9a3d
00000240: 7828 6d3e 16cf 323e 9635 dabd 121e d53d
00000250: d5e7 893d 80b9 523e a82a 05be 211e 7bbd
00000260: c05f 2c3e 6d9a cb3d b903 653e 5f28 21be
00000270: 591b 80be d1a9 96be d7f0 5a3e 98f0 3abe
00000280: e64e 873d 05f0 1f3e 546a 2fbe 956e 54bd
00000290: 19ae b83e 8f3e 553e dc91 833d 699f 5a3e
000002a0: f19c a33e 38bc cabd c129 0a3e 1718 6bbd
000002b0: 977a 153e 6e05 183e 5821 d63d 603d cfbe
000002c0: db86 053d 0b60 2abe abd5 4d3e 3a97 bdbd
000002d0: 8051 8dbe 95f3 c0bd d6ec 923c b475 15be
000002e0: e871 13be e9f9 533e 0a9d afbd ebd1 c1bd
000002f0: f8fc c83d a6bd 9dbe 36af e63d d3ad 6c3d
00000300: a5d2 c6bc 405f 923d 0904 46bd 827b ccbd
00000310: 1239 c13e db9c 2dbe 814c b93d f127 3ebd
00000320: ce04 793e 6113 3a3d 85be 41be 16ef f23b
00000330: 8a1b 12bd bca4 96be cd5e b33e 112a 6e3d
00000340: bbc7 983e 6605 4c3c e7f3 c3bd d7d1 e6bb
00000350: f71c 773e 5130 313e 2c6e e0bd 8ee6 e4bc
00000360: 9086 a83d 9f7d 0abe 371c 6c3e 6acd a7bd
00000370: 05c9 35be d3ba 09be 0c3f 563e 9eaa 86be
00000380: 5567 9c3e e3fd e03d 9e31 57be 74f8 ce3c
00000390: ddf0 3a3e e265 ef3d aa8d 883d 89c2 843e
000003a0: 6e3f a73e d5af 8fbe e4cd c63a bf28 08be
000003b0: 8289 8d3e ea27 993e d868 163e aa3c ffbe
000003c0: d598 fa3d 72d5 72bc f966 773e bee2 5ebd
000003d0: d228 6dbe 17a6 c8bd eaee ecbb febf 95be
000003e0: 6a7e 19be ffab 5a3c 0b2b 8e3d 3077 97be
000003f0: e96b 1f3e 11e8 97be b526 b03d ae8f e33d

lstm.bias_ih_l0 f4 [256]
0.48517647 0.40378237 0.10153864 0.35822675 0.12082169 0.19220106 0.37024856 0.23297347
0.4144375 0.47106948 0.49489236 0.24667841 0.19387005 0.34411314 0.30999777 0.5489105
0.39716798 0.33129135 0.44493723 0.42291772 0.5125114 0.4268956 0.23430529 0.41754812
0.40442434 0.2330398 0.39587778 0.32954147 0.41723564 0.2634632 0.34232843 0.2679603
0.49847418 0.36732566 0.22812419 0.17897478 0.39385578 0.33709982 0.43074292 0.2549871
0.50501305 0.43808267 0.32542512 0.4399231 0.40499315 0.31525728 0.31618357 0.26020622
0.41786978 0.34026566 0.5529775 0.40438798 0.32080853 0.3553639 0.29836613 0.35836175
0.5139155 0.25900024 0.39388523 0.18646492 0.39067778 0.22881265 0.26456466 0.18301585
-0.07189343 0.012991092 0.07238766 0.20868559 0.20384572 0.10951991 0.19341165 0.16595353
0.08919704 0.071034774 0.05403805 0.14501694 0.19435216 0.17174757 0.049233593 0.17927371
0.029742308 0.07460276 0.068170525 0.08953097 0.0067561446 0.08940155 0.1162814 0.23473339
-0.028935773 0.238223 0.26444444 -0.017028213 0.025850255 0.17087239 0.029307246 0.24178946
0.15578961 -0.06942137 0.15517475 0.07605464 0.16793872 0.03036492 0.079832666 0.03297811
0.22342981 0.13762365 0.21404248 0.11107026 0.23487577 0.2426866 0.18024886 0.2381472
0.2705136 0.20065501 0.11285332 0.15764555 0.22115158 0.09597954 0.006888436 0.088537775
0.20141263 0.09221104 0.14786994 0.068035625 0.01627731 0.07264459 0.24484146 -0.0115849655
-0.06735684 0.056031957 -0.060746152 0.024482511 0.12258188 0.030563194 -0.022862291 -0.11552645
0.05953457 -0.061319582 -0.109455645 0.0038029572 -0.16484034 -0.1549344 0.041006863 0.080054946
0.10275551 -0.1174768 0.031770136 0.038416576 0.02621663 -0.078545004 0.038662132 -0.048947703
0.10201176 -0.10254235 -0.019969387 -0.039106883 -0.024930922 0.005659419 0.05461175 -0.07829998
-0.072397076 0.13095246 -0.042819437 -0.07552242 0.0977778 0.06525029 0.14320897 0.021139773
0.1098704 -0.030347781 -0.047644142 -0.08244843 0.089623086 0.008986058 -0.038601737 -0.10661898
0.082875885 0.04660514 0.003121036 -0.08727725 -0.0032152948 -0.12487123 -0.0716795 0.008651521
-0.10617665 0.03371282 -0.006889781 -0.10758758 0.1414932 -0.0075214445 0.030214857 0.10270496
0.5467017 0.60429186 0.2621324 0.25468767 0.39727235 0.38737112 0.494857 0.31985667
0.44981077 0.42443916 0.5882228 0.40638462 0.26790372 0.58586925 0.49127123 0.49181655
0.34376478 0.44044667 0.5158227 0.56367034 0.54694915 0.50893956 0.3637919 0.34532824
0.44443056 0.28277692 0.39957735 0.32223898 0.62117004 0.5124952 0.41439232 0.3941317
0.5052857 0.3285019 0.41704598 0.28641486 0.40657598 0.3932461 0.50109196 0.3456255
0.556212 0.45512363 0.56108105 0.36734015 0.48270178 0.4171999 0.31969434 0.4327989
0.44955114 0.5331187 0.5454693 0.5800163 0.31165114 0.6093442 0.3915654 0.51564944
0.56206083 0.30312675 0.34701142 0.33272058 0.45264956 0.32869035 0.48181757 0.34475726
00000000: 0d69 f83e 90bc ce3e 7ef3 cf3d 7f69 b73e
00000010: 5d71 f73d 5bd0 443e 3891 bd3e 9990 6e3e
00000020: 2731 d43e 0530 f13e 8862 fd3e 4499 7c3e
00000030: df85 463e 992f b03e 07b8 9e3e 6685 0c3f
00000040: 9a59 cb3e 059f a93e d0ce e33e ac88 d83e
00000050: f233 033f 0f92 da3e baed 6f3e dec8 d53e
00000060: b510 cf3e fca1 6e3e 7eb0 ca3e a9b9 a83e
00000070: e99f d53e a6e4 863e ac45 af3e 1832 893e
00000080: 0238 ff3e 1c12 bc3e 6399 693e 2a45 373e
00000090: 77a7 c93e 5998 ac3e 568a dc3e ab8d 823e
000000a0: 8948 013f 5f4c e03e 1f9e a63e 9a3d e13e
000000b0: 435b cf3e 6769 a13e d0e2 a13e c039 853e
000000c0: 07f3 d53e 4d37 ae3e ef8f 0d3f f10b cf3e
000000d0: 0441 a43e 42f2 b53e 72c3 983e 317b b73e
000000e0: f78f 033f ae9b 843e 53ab c93e a9f0 3e3e
000000f0: eb06 c83e dd4d 6a3e 0575 873e 8268 3b3e
00000100: dd3c 93bd 97d8 543c fb3f 943d adb1 553e
00000110: efbc 503e f94b e03d b40d 463e b9ef 293e
00000120: f0ac b63d ae7a 913d 0157 5d3d 527f 143e
00000130: 4104 473e 98de 2f3e 2aa9 493d 8793 373e
00000140: 24a6 f33c 55c9 983d fd9c 8b3d 035c b73d
00000150: a662 dd3b 2918 b73d f124 ee3d f35d 703e
00000160: b70a edbc bbf0 733e 4365 873e c07e 8bbc
00000170: eac3 d33c 2cf9 2e3e c015 f03c a897 773e
00000180: 5087 1f3e cb2c 8ebd 21e6 1e3e 89c2 9b3d
00000190: 21f8 2b3e dabf f83c 4f7f a33d 0e14 073d
000001a0: c9ca 643e 37ed 0c3e f42d 5b3e ce78 e33d
000001b0: 4683 703e d682 783e 2893 383e dcdc 733e
000001c0: c280 8a3e 8278 4d3e a41f e73d d66d 213e
000001d0: 8f75 623e ec90 c43d 64b8 e13b 4b53 b53d
000001e0: 1d3f 4e3e 24d9 bc3d 386b 173e 4356 8b3d
000001f0: fe57 853c b0c6 943d b8b7 7a3e dece 3dbc
00000200: 62f2 89bd c481 653d f5d0 78bd 8c8f c83c
00000210: 350c fb3d aa5f fa3c b349 bbbc 2299 ecbd
00000220: 85da 733d 3e2a 7bbd 482a e0bd 093b 793b
00000230: e8cb 28be 20a7 1ebe d0f6 273d d9f3 a33d
00000240: 7b71 d23d ad97 f0bd 6721 023d b35a 1d3d
00000250: 42c4 d63c 34dc a0bd 2f5c 1e3d 637d 48bd
00000260: 8beb d03d b901 d2bd d796 a3bc 8a2e 20bd
00000270: ef3b ccbc a672 b93b 92b0 5f3d bd5b a0bd
00000280: eb44 94bd 6718 063e 6f63 2fbd 80ab 9abd
00000290: ba3f c83d f2a1 853d 5fa5 123e 512d ad3c
000002a0: bb03 e13d e99b f8bc 8126 43bd b9da a8bd
000002b0: 4f8c b73d 423a 133c db1c 1ebd 0d5b dabd
000002c0: d5ba a93d 08e5 3e3d 4c8a 4c3b 6abe b2bd
000002d0: b2b7 52bb 7dbc ffbd b4cc 92bd 1cbf 0d3c
000002e0: 2573 d9bd 7416 0a3d acc3 e1bb e156 dcbd
000002f0: 98e3 103e 7376 f6bb 2685 f73c fa56 d23d
00000300: a5f4 0b3f dfb2 1a3f 3836 863e 6c66 823e
00000310: 4867 cb3e 8255 c63e e65d fd3e 41c4 a33e
00000320: 994d e63e 1750 d93e c595 163f a511 d03e
00000330: ad2a 893e 87fb 153f e787 fb3e 61cf fb3e
00000340: f001 b03e 3a82 e13e f50c 043f b34c 103f
00000350: dc04 0c3f dd49 023f ef42 ba3e ddce b03e
00000360: 678c e33e 23c8 903e 6795 cc3e 82fc a43e
00000370: 0005 1f3f e332 033f 3b2b d43e a1cb c93e
00000380: 675a 013f 6731 a83e 0d87 d53e f8a4 923e
00000390: ba2a d03e 8e57 c93e 9047 003f d3f5 b03e
000003a0: e963 0e3f f705 e93e 02a3 0f3f 0214 bc3e
000003b0: b024 f73e 3a9b d53e faae a33e d197 dd3e
000003c0: 912b e63e 787a 083f e0a3 0b3f f37b 143f
000003d0: bd90 9f3e fbfd 1b3f 437b c83e 9a01 043f
000003e0: 38e3 0f3f 6e33 9b3e 7bab b13e 5a5a aa3e
000003f0: afc1 e73e 1a4a a83e cbb0 f63e 0684 b03e

lstm.bias_hh_l0 f4 [256]
0.5360993 0.5916642 0.20754816 0.3182292 0.15179816 0.2635734 0.50393444 0.1289585
0.39894173 0.43110278 0.39371353 0.1778821 0.30516344 0.3504892 0.40649974 0.392129
0.425121 0.44852647 0.20893098 0.2725747 0.4105747 0.3003768 0.31359026 0.42741823
0.45874485 0.18059851 0.3842414 0.4194398 0.5427297 0.46035427 0.26115212 0.21093625
0.3342376 0.3800825 0.171014 0.40987584 0.40358767 0.21613185 0.5063738 0.11568142
0.5019707 0.34253782 0.37291932 0.4216 0.26528797 0.3194225 0.37529773 0.13124236
0.3210885 0.296638 0.43470362 0.3093075 0.20233367 0.36224222 0.2359856 0.5001532
0.36730635 0.2935377 0.23062892 0.4021682 0.45668128 0.19771084 0.2878848 0.3488144
-0.050616905 0.0072206836 0.17103586 0.1576523 0.18832295 0.21196893 0.09815726 -0.0055045458
0.13660185 0.15019989 0.10365725 0.19731688 0.03745111 0.17441085 0.25320226 0.09389751
0.0019016908 -0.036108796 0.09708958 0.0703937 0.02512175 0.20629355 0.09605972 0.22276433
0.03328096 0.19365926 0.22972427 -0.020301837 0.15081356 -0.05441414 0.15675926 0.25232053
0.1975559 -0.0072995913 0.16229443 0.24243554 0.15326764 0.15932713 0.07973089 0.25106838
0.11427921 0.20828824 0.06478749 0.047621395 0.041746177 0.10453808 0.18623197 0.1768043
0.19540536 0.17655274 0.018326221 0.1812776 0.00390185 0.089039415 0.0398071 0.2061932
0.17058909 -0.05313859 0.015006822 0.05665617 0.08972916 0.1538239 0.22652003 -0.008130649
-0.02870052 -0.09524237 0.053247277 -0.13360296 0.14473072 -0.14424948 0.082811706 0.008851525
-0.062224828 -0.009836901 -0.11971827 -0.07609888 -0.17811501 -0.13938062 -0.013731398 0.09850898
0.020446919 0.08937467 -0.09239115 0.021349713 0.09186082 0.07231046 -0.055103317 0.08869257
0.13603085 0.04487247 0.115504645 -0.063369825 -0.011529595 -0.08501677 0.06876657 0.024449773
0.051260892 0.16949864 -0.14758754 0.010188502 -0.012629803 0.1107861 0.040358853 0.08505153
0.13940932 -0.0501771 -0.036037106 -0.0328689 0.15630174 0.13665254 -0.06905106 -0.13126184
0.096377134 0.045176014 -0.013110266 -0.082394645 -0.091663964 0.06698966 0.12749518 -0.015628522
-0.018390154 0.12828495 -0.06603487 0.027348815 0.011949695 -0.07655196 -0.10792084 0.11700359
0.43912345 0.64914405 0.3459007 0.25613293 0.3358925 0.45578516 0.46536568 0.3155091
0.4357774 0.50117016 0.41507465 0.4474676 0.33753315 0.49656492 0.49024776 0.53497154
0.5211836 0.58491224 0.505753 0.5501337 0.51780415 0.45771134 0.49074292 0.46203306
0.41039035 0.30083686 0.6178585 0.38939342 0.422087 0.40550023 0.40834624 0.38133064
0.5499194 0.37442312 0.3680243 0.2797824 0.5040792 0.34613225 0.42076528 0.2662084
0.606706 0.62148005 0.44191343 0.36672026 0.41137844 0.44009745 0.26249278 0.2851758
0.5076589 0.46776038 0.61479026 0.540441 0.25238198 0.5207994 0.21231025 0.4581224
0.4879361 0.3126451 0.40728703 0.33654416 0.38944247 0.28327805 0.53417414 0.360588
00000000: ce3d 093f 4e77 173f 8187 543e f0ee a23e
00000010: fa70 1b3e 18f3 863e d901 013f b20d 043e
00000020: 1742 cc3e 81b9 dc3e d294 c93e ba26 363e
00000030: 623e 9c3e 5273 b33e bc20 d03e 22c5 c83e
00000040: 76a9 d93e 43a5 e53e 01f2 553e e98e 8b3e
00000050: d936 d23e fdca 993e e78e a03e 90d6 da3e
00000060: 9be0 ea3e d1ee 383e 4abb c43e d0c0 d63e
00000070: 55f0 0a3f 8eb3 eb3e bbb5 853e acff 573e
00000080: 3121 ab3e 2c9a c23e 4b1e 2f3e 3fdb d13e
00000090: 0ba3 ce3e ab51 5d3e b7a1 013f 61ea ec3d
000000a0: 2781 003f 1e61 af3e 48ef be3e f5db d73e
000000b0: d3d3 873e 598b a33e 0627 c03e 6664 063e
000000c0: b665 a43e f0e0 973e 7991 de3e 8d5d 9e3e
000000d0: 8f30 4f3e d077 b93e 36a6 713e 0a0a 003f
000000e0: 940f bc3e 934a 963e fd29 6c3e fee8 cd3e
000000f0: 21d2 e93e b674 4a3e a365 933e cd97 b23e
00000100: ac53 4fbd 7c9b ec3b 0624 2f3e 9b6f 213e
00000110: bbd7 403e 620e 593e ac06 c93d 7a5f b4bb
00000120: 5be1 0b3e 00ce 193e 414a d43d 700d 4a3e
00000130: 5666 193d c298 323e baa3 813e 564d c03d
00000140: 2842 f93a d1e6 13bd e7d6 c63d 922a 903d
00000150: 21cc cd3c 9e3e 533e f5ba c43d 551c 643e
00000160: 9e51 083d 9d4e 463e d73c 6b3e 0a50 a6bc
00000170: df6e 1a3e 5ce1 5ebd 8085 203e 2830 813e
00000180: 184c 4a3e 6931 efbb 8330 263e 0641 783e
00000190: 31f2 1c3e a726 233e f349 a33d 098c 803e
000001a0: 380b ea3d 8349 553e 4eaf 843d a70e 433d
000001b0: 0afe 2a3d 1018 d63d 98b3 3e3e 300c 353e
000001c0: 5818 483e 3eca 343e df20 963c d6a0 393e
000001d0: 2eb6 7f3b 4c5a b63d c50c 233d 4f24 533e
000001e0: e8ae 2e3e daa7 59bd 2cdf 753c 4d10 683d
000001f0: ecc3 b73d 0384 1d3e def4 673e 6a36 05bc
00000200: 5a1d ebbc 6f0e c3bd d119 5a3d 37cf 08be
00000210: 4a34 143e 23b6 13be 2f99 a93d fd05 113c
00000220: 76df 7ebd f42a 21bc da2e f5bd bbd9 9bbd
00000230: c863 36be cbb9 0ebe a8f9 60bc 13bf c93d
00000240: 4c80 a73c 110a b73d 9237 bdbd 98e5 ae3c
00000250: 8721 bc3d 8217 943d 04b4 61bd 73a4 b53d
00000260: ac4b 0b3e 32cc 373d b38d ec3d 0ac8 81bd
00000270: a0e6 3cbc 461d aebd 7dd5 8c3d e44a c83c
00000280: f1f6 513d 0d91 2d3e 3021 17be aded 263c
00000290: 3ced 4ebc d3e3 e23d 534f 253d 7f2f ae3d
000002a0: 51c1 0e3e 8186 4dbd a59b 13bd 8aa1 06bd
000002b0: 900d 203e a5ee 0b3e a46a 8dbd 8169 06be
000002c0: 6061 c53d 7c0a 393d 71cc 56bc 86be a8bd
000002d0: 51ba bbbd e031 893d 198e 023e 6307 80bc
000002e0: f3a6 96bc 215d 033e 4a3d 87bd 9f0a e03c
000002f0: a7c8 433c 46c7 9cbd 9a05 ddbd 949f ef3d
00000300: cad4 e03e 4e2e 263f e619 b13e db23 833e
00000310: 1afa ab3e ac5c e93e 6944 ee3e 698a a13e
00000320: 371e df3e b04c 003f aa84 d43e 791a e53e
00000330: 25d1 ac3e c23d fe3e c101 fb3e e5f3 083f
00000340: 4a6c 053f cfbc 153f 0779 013f 90d5 0c3f
00000350: d08e 043f 2459 ea3e a842 fb3e 998f ec3e
00000360: af1e d23e 4a07 9a3e fa2b 1e3f 935e c73e
00000370: ca1b d83e ba9d cf3e c212 d13e c53d c33e
00000380: 85c7 0c3f 63b4 bf3e ae6d bc3e a43f 8f3e
00000390: 560b 013f 3f38 b13e 8c6e d73e 784c 883e
000003a0: 1651 1b3f 5119 1f3f 7a42 e23e c2c2 bb3e
000003b0: 32a0 d23e 7454 e13e 7465 863e 9002 923e
000003c0: eff5 013f 4a7e ef3e e562 1d3f 575a 0a3f
000003d0: 3638 813e 1c53 053f dc67 593e 058f ea3e
000003e0: c3d2 f93e 0513 a03e ed87 d03e 844f ac3e
000003f0: 0165 c73e d209 913e a3bf 083f fe9e b83e

fc.weight f4 [597, 64]
-0.025073385 0.23539355 0.041203137 -0.1021541 -0.008165424 0.03845834 0.096566446 0.14691973
-0.20033154 0.11069188 -0.11320895 -0.2619669 0.04840465 0.12158786 -0.074104235 -0.35552737
-0.2887289 0.0022527692 0.024074914 -0.35817942 0.122577384 0.1689299 0.13124345 0.057158493
0.027447667 -0.23931041 -0.011940626 0.063887894 0.28847173 -0.16007018 -0.3347397 0.42840615
-0.42551005 0.051697653 0.08891825 0.14742593 0.09017321 -0.12618467 -0.18764375 -0.101122335
0.00260793 0.05787792 -0.21311387 0.30460587 0.023425035 0.18404147 -0.032546155 0.39944583
-0.03169372 -0.15623324 0.026638184 0.1322333 0.05032148 -0.091819406 0.20684017 0.38853422
-0.08631588 -0.09840416 0.040578578 0.29724348 0.22941288 -0.04967234 -0.38544214 -0.003681933
0.11707724 0.20548438 0.26420715 0.22611856 -0.1223986 0.075921394 0.17075321 -0.066147834
0.1644059 -0.18291825 0.06477201 0.14814569 -0.04735174 -0.11924472 -0.22180058 -0.067897715
-0.18871465 -0.2706039 0.14047807 -0.13916546 -0.122738644 0.16422932 -0.30445948 -0.21227762
-0.24017563 -0.319964 -0.20296761 0.31205088 0.28988543 0.13088961 -0.1958629 0.064900145
-0.22968157 -0.22605664 -0.018590976 0.11211532 -0.022242513 0.08151184 0.07410517 0.25628805
-0.07731577 0.32997307 0.09931883 0.077418126 0.04777027 -0.22397694 -0.0110915005 0.18569998
-0.38340184 0.20769355 0.12556654 0.22583263 0.2783806 0.026207998 -0.10306214 0.20426635
0.16727123 -0.19465391 -0.014469798 0.1521663 0.13808367 0.059805952 -0.20558214 -0.3001974
-0.07516346 0.30167794 0.13917036 0.34608674 -0.18947126 0.30816203 0.1594419 0.209926
0.041719176 -0.25455862 0.26067853 -0.04490888 0.16456781 0.07394276 0.07097045 -0.08873896
-0.16769783 0.09535357 0.35329023 -0.38425726 -0.06543995 0.032876868 -0.2626754 -0.19770725
-0.40050846 -0.12071566 -0.39850545 -0.096180364 -0.18914549 -0.050467797 -0.033206277 0.3464175
-0.26326188 -0.081457585 0.31322098 0.025986698 -0.1366906 -0.13961755 0.14993669 0.10654843
0.0042388444 -0.13692239 -0.30698 -0.111335 -0.33586222 -0.09312033 -0.20135313 -0.03939389
-0.19232495 0.09374201 -0.23478124 0.35521498 0.36302122 0.09960991 0.13799505 0.3232915
0.35613135 0.066554196 0.358841 -0.09645721 0.2972905 0.36907718 -0.33498898 -0.19792286
0.093697704 0.33079904 -0.07870467 0.0340649 -0.36462408 0.07537212 -0.20146242 0.079229996
-0.070809454 -0.15037669 -0.18473054 -0.12334183 -0.094688214 -0.0007079379 -0.23448253 0.09573643
8.653657e-05 -0.10211775 0.108602904 0.12472383 0.20223986 -0.22684403 -0.3391507 -0.08533246
-0.29588896 -0.30904338 0.047540255 -0.045758415 0.26821852 0.060135208 0.061837826 0.33951482
0.09102436 -0.05851977 -0.0133518055 0.17519772 -0.03689775 -0.030412588 -0.30202726 0.15637247
0.11762839 -0.02336965 -0.1571447 0.033488926 -0.32967648 0.09204381 -0.0032184762 0.1986487
0.013537587 0.18149397 -0.21105085 -0.07048202 0.22448269 0.014439306 -0.1581529 0.19353111
0.27008945 -0.29790473 -0.07869909 0.20764998 0.07742195 0.47537813 0.1705485 -0.16604719
00000000: b366 cdbc 020b 713e 9fc4 283d 2b36 d1bd
00000010: 45c8 05bc 7e86 1d3d a1c4 c53d 2072 163e
00000020: b623 4dbe 6db2 e23d 18da e7bd 8720 86be
00000030: f443 463d 0e03 f93d f6c3 97bd af07 b6be
00000040: 46d4 93be 32a3 133b c138 c53c 4b63 b7be
00000050: da09 fb3d f6fb 2c3e af64 063e 061f 6a3d
00000060: eed9 e03c ca0d 75be 9ea2 43bc a8d7 823d
00000070: 91b2 933e 70e9 23be 0163 abbe 0d58 db3e
00000080: 74dc d9be ebc0 533d c51a b63d d3f6 163e
00000090: bbac b83d 8e36 01be af25 40be 3a19 cfbd
000000a0: cee9 2a3b 6611 6d3d 863a 5abe 4df5 9b3e
000000b0: dce5 bf3c 5e75 3c3e 1e4f 05bd 2a84 cc3e
000000c0: 46d1 01bd 9bfb 1fbe 5238 da3c 2b68 073e
000000d0: e51d 4e3d d00b bcbd e9cd 533e f5ed c63e
000000e0: 61c6 b0bd 1f88 c9bd b935 263d 4c30 983e
000000f0: 36eb 6a3e 3975 4bbd ac58 c5be 964c 71bb
00000100: 31c6 ef3d 7f6a 523e 2946 873e a08b 673e
00000110: 1eac fabd ad7c 9b3d eed9 2e3e 8478 87bd
00000120: 055a 283e ec4e 3bbe 30a7 843d 81b3 173e
00000130: e6f3 41bd 9336 f4bd b11f 63be f50d 8bbd
00000140: 6a3e 41be 988c 8abe 7cd9 0f3e 6481 0ebe
00000150: 665e fbbd bb2b 283e 1de2 9bbe 4e5f 59be
00000160: 9af0 75be 52d2 a3be bed6 4fbe 22c5 9f3e
00000170: dd6b 943e ed07 063e 4990 48be 5eea 843d
00000180: a531 6bbe 647b 67be 1a4c 98bc b89c e53d
00000190: ee35 b6bc aeef a63d 74c4 973d 3038 833e
000001a0: bb57 9ebd 3bf2 a83e ac67 cb3d 658d 9e3d
000001b0: c2aa 433d 365a 65be 20b9 35bc 2328 3e3e
000001c0: 3f4d c4be 9ead 543e 8494 003e ab40 673e
000001d0: e787 8e3e 28b2 d63c 3e12 d3bd 332b 513e
000001e0: 2649 2b3e 5b53 47be bb12 6dbc 7cd1 1b3e
000001f0: ce65 0d3e 16f7 743d 2084 52be 79b3 99be
00000200: 4def 99bd 8875 9a3e ad82 0e3e 4832 b13e
00000210: c104 42be 6ac7 9d3e bd44 233e d7f6 563e
00000220: bae1 2a3d 8255 82be a877 853e 60f2 37bd
00000230: 7784 283e 4d6f 973d f558 913d c6bc b5bd
00000240: fbb8 2bbe bc48 c33d 75e2 b43e 5ebd c4be
00000250: 6105 86bd e5a9 063d 647d 86be c573 4abe
00000260: 720f cdbe c639 f7bd e808 ccbe 36fa c4bd
00000270: 5baf 41be 52b7 4ebd 4e03 08bd a25d b13e
00000280: 43ca 86be 3cd3 a6bd 805e a03e 0ee2 d43c
00000290: 9ff8 0bbe e7f7 0ebe 0189 193e 1036 da3d
000002a0: 01e6 8a3b 6235 0cbe 7c2c 9dbe 9b03 e4bd
000002b0: 22f6 abbe dfb5 bebd 842f 4ebe 7d5b 21bd
000002c0: d5f0 44be d0fb bf3d 7e6a 70be bdde b53e
000002d0: ebdd b93e 4800 cc3d 934e 0d3e 7786 a53e
000002e0: d956 b63e 914d 883d 02ba b73e 5c8b c5bd
000002f0: 7636 983e aff7 bc3e ad83 abbe 4aac 4abe
00000300: 95e4 bf3d 7e5e a93e ea2f a1bd a387 0b3d
00000310: 02b0 babe b35c 9a3d 2a4c 4ebe 5643 a23d
00000320: 8c04 91bd 59fc 19be 012a 3dbe a49a fcbd
00000330: e5eb c1bd e994 39ba 301c 70be 7611 c43d
00000340: f87a b538 1c23 d1bd 336b de3d 356f ff3d
00000350: f717 4f3e cd49 68be 29a5 adbe c9c2 aebd
00000360: c27e 97be ef3a 9ebe 92b9 423d 2d6d 3bbd
00000370: f053 893e 5650 763d a949 7d3d e3d4 ad3e
00000380: fb6a ba3d 6db2 6fbd 88c1 5abc 0867 333e
00000390: 1822 17bd d223 f9bc 51a3 9abe 1b20 203e
000003a0: 27e7 f03d b571 bfbc 8aea 20be af2b 093d
000003b0: 5bcb a8be 7781 bc3d 12ed 52bb 916a 4b3e
000003c0: c1cc 5d3c 8ed9 393e b71d 58be e158 90bd
000003d0: cade 653e d792 6c3c d5f2 21be 052d 463e
000003e0: 2a49 8a3e f886 98be fd2c a1bd 32a2 543e
000003f0: 668f 9e3d c364 f33e 44a4 2e3e 4608 2abe

fc.bias f4 [597]
0.000884586 0.07537199 -0.009060447 -0.06787608 -0.019628312 -0.14393607 0.035810832 -0.13888371
0.079747215 -0.04175036 -0.0033308666 0.06146449 0.086691454 -0.03152167 -0.08422533 -0.025059706
0.07759158 -0.053767733 -0.09937818 0.03175538 0.1319142 0.04751644 -0.06592111 0.089512214
0.05621043 -0.03191017 -0.008581548 -0.10969699 -0.016939746 -0.12493033 -0.074015535 -0.09680463
0.038133703 -0.07318866 -0.11524078 -0.06516741 -0.07066841 -0.037228473 0.05508899 -0.047750518
-0.03675975 0.067415036 -0.026503135 -0.0016156195 0.03487048 -0.047098264 -0.08690979 -0.10068985
-0.09630345 -0.07206205 -0.09320389 0.048553362 -0.024251241 -0.09019721 0.077909045 -0.15337102
0.12074199 -0.022100288 -0.06689747 -0.064415164 -0.06096913 0.07566535 -0.022717398 -0.06743663
-0.0031261113 0.028936174 -0.029545194 -0.07739833 0.05518619 0.050822154 -0.0158946 -0.07768734
-0.02640027 -0.0012565567 -0.13248129 -0.13047303 0.06257394 0.038432866 0.04885859 -0.07604859
-0.06815296 -0.05853573 -0.011834237 -0.04565799 0.055226192 -0.08606238 0.0463315 0.045776166
0.019736169 -0.11693781 0.0005050512 -0.0029456893 -0.08368198 -0.137561 0.0035261635 0.0119107375
-0.09100642 0.0030861448 -0.018514039 0.040125918 0.019586071 -0.12508538 0.010806194 -0.07255999
0.08865527 -0.12367449 -0.05851391 0.07320187 0.01771311 0.059640683 -0.13033654 -0.0022015811
-0.10782829 0.04793829 -0.068953335 -0.044729274 -0.16815224 -0.044774327 -0.0032513093 -0.04150626
-0.012349634 0.026381558 -0.06500993 -0.0681992 -0.07489466 0.032366727 -0.080644086 -0.15344012
-0.036987636 0.08544802 0.0034647302 0.04621951 -0.047770645 -0.10383973 -0.013577713 -0.013986697
0.07277522 -0.06612226 -0.0149202235 -0.17892402 -0.043913215 -0.07291975 -0.048446424 -0.016375078
-0.11352596 -0.07235186 0.051472075 0.0012483781 -0.122120254 0.013717857 -0.100161284 0.01899246
0.046658557 -0.08191542 0.023007805 -0.12778537 0.07957913 -0.032935638 -0.059338573 -0.08411519
-0.045402855 0.10211411 0.0561175 -0.091375686 -0.017118864 -0.020143311 0.07347805 -0.0121898735
0.015502936 -0.12955466 0.021073572 -0.1607551 -0.09188075 0.09181652 0.08441622 -0.06908246
-0.04171442 0.07137652 -0.105525315 0.07771534 -0.08805058 0.04085754 -0.071761586 -0.0019865034
-0.11296094 -0.008195449 -0.12908952 0.021396462 0.064831 -0.14781004 0.058544252 -0.06720827
-0.05047247 -0.07943009 -0.12929697 -0.022235122 0.052787963 -0.14035971 -0.12605324 -0.15700705
-0.07204685 -0.0006132082 -0.0482493 -0.05064804 -0.046186227 0.030447783 -0.050781682 0.065792926
0.0895177 -0.13918822 0.10691169 0.004335829 -0.1303286 -0.12330025 -0.11566206 -0.0028689974
0.036548324 -0.094823584 -0.10906193 -0.0989107 0.04209595 -0.08251257 -0.1421166 -0.070254944
-0.119162604 0.023570387 0.009831711 0.011233066 -0.049332734 -0.0070095956 0.07298174 -0.11938192
0.03451156 -0.10999604 0.05622656 0.05836509 -0.04998554 -0.06492985 0.051522695 0.019801952
0.02159171 -0.1203294 0.006479948 -0.1118675 0.07829333 -0.12968864 -0.055021547 0.007298173
0.035689708 0.030018419 -0.07597183 0.01720372 0.024358245 -0.025291633 0.05780784 -0.13279592
00000000: 90e3 673a a15c 9a3d 4572 14bc 9d02 8bbd
00000010: 8ecb a0bc fa63 13be 61ae 123d 8837 0ebe
00000020: 8252 a33d 6d02 2bbd ab4a 5abb 30c2 7b3d
00000030: 4a8b b13d de1c 01bd 547e acbd 034a cdbc
00000040: 56e8 9e3d 8e3b 5cbd ca86 cbbd ee11 023d
00000050: 8414 073e 99a0 423d a601 87bd 2e52 b73d
00000060: e83c 663d 3db4 02bd 9f99 0cbc d1a8 e0bd
00000070: 39c5 8abc 79db ffbd 7595 97bd 8141 c6bd
00000080: 1632 1c3d f0e3 95bd 5c03 ecbd 7e76 85bd
00000090: 99ba 90bd e27c 18bd fea4 613d 0c96 43bd
000000a0: 6491 16bd e510 8a3d 1a1d d9bc 32c3 d3ba
000000b0: 59d4 0e3d 1cea 40bd c3fd b1bd 7b36 cebd
000000c0: be3a c5bd 4595 93bd aee1 bebd e4df 463d
000000d0: 8aaa c6bc 51b9 b8bd c78e 9f3d 4b0d 1dbe
000000e0: 9447 f73d aa0b b5bc 8a01 89bd 19ec 83bd
000000f0: c4ba 79bd 6ff6 9a3d d619 babc 371c 8abd
00000100: 72df 4cbb 8e0b ed3c c308 f2bc 0483 9ebd
00000110: ea0a 623d e42a 503d 6435 82bc 8a1a 9fbd
00000120: 6145 d8bc 0cb3 a4ba 2da9 07be b99a 05be
00000130: c426 803d c86b 1d3d f21f 483d 5dbf 9bbd
00000140: c793 8bbd 29c3 6fbd 63e4 41bc df03 3bbd
00000150: dc34 623d 7941 b0bd 19c6 3d3d ca7f 3b3d
00000160: bfad a13c 177d efbd 6a65 043a 770c 41bb
00000170: 7561 abbd cadc 0cbe 3517 673b 4125 433c
00000180: 9361 babd eb40 4a3b c1aa 97bc 135b 243d
00000190: f872 a03c 6216 00be 760c 313c 559a 94bd
000001a0: e590 b53d 0d49 fdbd 48ac 6fbd ddea 953d
000001b0: 161b 913c ca49 743d f176 05be 6748 10bb
000001c0: 14d5 dcbd f15a 443d 6837 8dbd 0b36 37bd
000001d0: 1a30 2cbe 4965 37bd eb13 55bb 7802 2abd
000001e0: 1f56 4abc 231e d83c ed23 85bd 06ac 8bbd
000001f0: 5f62 99bd f992 043d ba28 a5bd 681f 1dbe
00000200: 5980 17bd 5fff ae3d 8710 633b ab50 3d3d
00000210: 27ab 43bd eda9 d4bd 0e75 5ebc 7628 65bc
00000220: 2d0b 953d 1c6b 87bd f473 74bc dc37 37be
00000230: 58de 33bd f356 95bd c26f 46bd 0725 86bc
00000240: 4c80 e8bd 362d 94bd 62d4 523d 9ea0 a33a
00000250: 2f1a fabd ddc0 603c 5c21 cdbd 1396 9b3c
00000260: 0b1d 3f3d 46c3 a7bd dd7a bc3c 2bda 02be
00000270: 62fa a23d 85e7 06bd 010d 73bd 9644 acbd
00000280: 58f8 39bd 3421 d13d 77db 653d 2d23 bbbd
00000290: dc3c 8cbc 9603 a5bc a97b 963d 09b8 47bc
000002a0: 0700 7e3c faa9 04be 7ca2 ac3c fc9c 24be
000002b0: fa2b bcbd 4d0a bc3d 69e2 ac3d 1b7b 8dbd
000002c0: bddc 2abd da2d 923d a81d d8bd 3829 9f3d
000002d0: dd53 b4bd 3c5a 273d bdf7 92bd ff2f 02bb
000002e0: 1158 e7bd 3446 06bc 0b30 04be a247 af3c
000002f0: 1ec6 843d 845b 17be 19cc 6f3d 7da4 89bd
00000300: 38bc 4ebd 3eac a2bd 6d66 04be 6e26 b6bc
00000310: 3138 583d 75ba 0fbe 1a14 01be 75c6 20be
00000320: 4d8d 93bd b5bf 20ba 0fa1 45bd 5274 4fbd
00000330: c52d 3dbd a16d f93c 7400 50bd 71be 863d
00000340: 0e55 b73d 5b87 0ebe 84f4 da3d 9213 8e3b
00000350: dc74 05be d784 fcbd 3be0 ecbd ca05 3cbb
00000360: b2b3 153d de32 c2bd dc5b dfbd b191 cabd
00000370: ce6c 2c3d 5afc a8bd 0487 11be d3e1 8fbd
00000380: 860b f4bd af16 c13c 2f15 213c e50a 383c
00000390: 1f11 4abd c0b0 e5bb 7377 953d 827e f4bd
000003a0: fe5b 0d3d 9b45 e1bd d24d 663d 3c10 6f3d
000003b0: a3bd 4cbd f1f9 84bd 7609 533d b437 a23c
000003c0: 19e1 b03c 436f f6bd be55 d43b ca1a e5bd
000003d0: 4158 a03d 19cd 04be 465e 61bd 8325 ef3b
000003e0: 5f2f 123d 30e9 f53c 1e97 9bbd d1ee 8c3c
000003f0: f18a c73c 6630 cfbc eac7 6c3d a7fb 07be
